node {
  output: "13"
  op_type: "Constant"
  attribute {
    name: "value"
    t {
      data_type: 7
      raw_data: "\001\000\000\000\000\000\000\000"
    }
    type: TENSOR
  }
}
node {
  input: "input"
  output: "14"
  op_type: "Shape"
}
node {
  input: "14"
  input: "13"
  output: "15"
  op_type: "Gather"
  attribute {
    name: "axis"
    i: 0
    type: INT
  }
}
node {
  output: "16"
  op_type: "Constant"
  attribute {
    name: "value"
    t {
      data_type: 7
      raw_data: "\003\000\000\000\000\000\000\000"
    }
    type: TENSOR
  }
}
node {
  output: "17"
  op_type: "Constant"
  attribute {
    name: "value"
    t {
      data_type: 7
      raw_data: "\006\000\000\000\000\000\000\000"
    }
    type: TENSOR
  }
}
node {
  input: "16"
  output: "18"
  op_type: "Unsqueeze"
  attribute {
    name: "axes"
    ints: 0
    type: INTS
  }
}
node {
  input: "15"
  output: "19"
  op_type: "Unsqueeze"
  attribute {
    name: "axes"
    ints: 0
    type: INTS
  }
}
node {
  input: "17"
  output: "20"
  op_type: "Unsqueeze"
  attribute {
    name: "axes"
    ints: 0
    type: INTS
  }
}
node {
  input: "18"
  input: "19"
  input: "20"
  output: "21"
  op_type: "Concat"
  attribute {
    name: "axis"
    i: 0
    type: INT
  }
}
node {
  input: "21"
  output: "22"
  op_type: "ConstantOfShape"
  attribute {
    name: "value"
    t {
      dims: 1
      data_type: 1
      raw_data: "\000\000\000\000"
    }
    type: TENSOR
  }
}
node {
  input: "bias_ih_l0"
  input: "bias_hh_l0"
  output: "24"
  op_type: "Concat"
  attribute {
    name: "axis"
    i: 0
    type: INT
  }
}
node {
  input: "weight_ih_l0"
  output: "25"
  op_type: "Unsqueeze"
  attribute {
    name: "axes"
    ints: 0
    type: INTS
  }
}
node {
  input: "weight_hh_l0"
  output: "26"
  op_type: "Unsqueeze"
  attribute {
    name: "axes"
    ints: 0
    type: INTS
  }
}
node {
  input: "24"
  output: "27"
  op_type: "Unsqueeze"
  attribute {
    name: "axes"
    ints: 0
    type: INTS
  }
}
node {
  input: "22"
  output: "28"
  op_type: "Slice"
  attribute {
    name: "axes"
    ints: 0
    type: INTS
  }
  attribute {
    name: "ends"
    ints: 1
    type: INTS
  }
  attribute {
    name: "starts"
    ints: 0
    type: INTS
  }
}
node {
  input: "input"
  input: "25"
  input: "26"
  input: "27"
  input: ""
  input: "28"
  output: "29"
  output: "30"
  op_type: "RNN"
  attribute {
    name: "activations"
    strings: "Tanh"
    type: STRINGS
  }
  attribute {
    name: "hidden_size"
    i: 6
    type: INT
  }
}
node {
  input: "29"
  output: "31"
  op_type: "Squeeze"
  attribute {
    name: "axes"
    ints: 1
    type: INTS
  }
}
node {
  input: "bias_ih_l1"
  input: "bias_hh_l1"
  output: "32"
  op_type: "Concat"
  attribute {
    name: "axis"
    i: 0
    type: INT
  }
}
node {
  input: "weight_ih_l1"
  output: "33"
  op_type: "Unsqueeze"
  attribute {
    name: "axes"
    ints: 0
    type: INTS
  }
}
node {
  input: "weight_hh_l1"
  output: "34"
  op_type: "Unsqueeze"
  attribute {
    name: "axes"
    ints: 0
    type: INTS
  }
}
node {
  input: "32"
  output: "35"
  op_type: "Unsqueeze"
  attribute {
    name: "axes"
    ints: 0
    type: INTS
  }
}
node {
  input: "22"
  output: "36"
  op_type: "Slice"
  attribute {
    name: "axes"
    ints: 0
    type: INTS
  }
  attribute {
    name: "ends"
    ints: 2
    type: INTS
  }
  attribute {
    name: "starts"
    ints: 1
    type: INTS
  }
}
node {
  input: "31"
  input: "33"
  input: "34"
  input: "35"
  input: ""
  input: "36"
  output: "37"
  output: "38"
  op_type: "RNN"
  attribute {
    name: "activations"
    strings: "Tanh"
    type: STRINGS
  }
  attribute {
    name: "hidden_size"
    i: 6
    type: INT
  }
}
node {
  input: "37"
  output: "39"
  op_type: "Squeeze"
  attribute {
    name: "axes"
    ints: 1
    type: INTS
  }
}
node {
  input: "bias_ih_l2"
  input: "bias_hh_l2"
  output: "40"
  op_type: "Concat"
  attribute {
    name: "axis"
    i: 0
    type: INT
  }
}
node {
  input: "weight_ih_l2"
  output: "41"
  op_type: "Unsqueeze"
  attribute {
    name: "axes"
    ints: 0
    type: INTS
  }
}
node {
  input: "weight_hh_l2"
  output: "42"
  op_type: "Unsqueeze"
  attribute {
    name: "axes"
    ints: 0
    type: INTS
  }
}
node {
  input: "40"
  output: "43"
  op_type: "Unsqueeze"
  attribute {
    name: "axes"
    ints: 0
    type: INTS
  }
}
node {
  input: "22"
  output: "44"
  op_type: "Slice"
  attribute {
    name: "axes"
    ints: 0
    type: INTS
  }
  attribute {
    name: "ends"
    ints: 3
    type: INTS
  }
  attribute {
    name: "starts"
    ints: 2
    type: INTS
  }
}
node {
  input: "39"
  input: "41"
  input: "42"
  input: "43"
  input: ""
  input: "44"
  output: "45"
  output: "46"
  op_type: "RNN"
  attribute {
    name: "activations"
    strings: "Tanh"
    type: STRINGS
  }
  attribute {
    name: "hidden_size"
    i: 6
    type: INT
  }
}
node {
  input: "45"
  output: "47"
  op_type: "Squeeze"
  attribute {
    name: "axes"
    ints: 1
    type: INTS
  }
}
node {
  input: "30"
  input: "38"
  input: "46"
  output: "48"
  op_type: "Concat"
  attribute {
    name: "axis"
    i: 0
    type: INT
  }
}
name: "torch-jit-export"
initializer {
  dims: 6
  data_type: 1
  name: "bias_hh_l0"
  raw_data: "8Q\244>8k\177\276l\242\223>\270v\365=\335\266\"\276\276\213\207\276"
}
initializer {
  dims: 6
  data_type: 1
  name: "bias_hh_l1"
  raw_data: "\230Qz>\304H\202\276\360\"\214<\030\017\230\276\010c!\275rB\314\276"
}
initializer {
  dims: 6
  data_type: 1
  name: "bias_hh_l2"
  raw_data: "\254h=\276<\2543>\230\240e=\000P\357\270\036d\261\276\221?\264\276"
}
initializer {
  dims: 6
  data_type: 1
  name: "bias_ih_l0"
  raw_data: "\310 \307\276v)*\276@_\344\275-\353\275\276h[\'=\236\360\240\276"
}
initializer {
  dims: 6
  data_type: 1
  name: "bias_ih_l1"
  raw_data: "B\340v\276\330\235=>\260\311\036\275\334w\204\276-\003\236\276\262\214\212>"
}
initializer {
  dims: 6
  data_type: 1
  name: "bias_ih_l2"
  raw_data: "\326\321\212>L\214\206\275\030p\346=\344o4\276\366\305\237>\230`\376="
}
initializer {
  dims: 6
  dims: 6
  data_type: 1
  name: "weight_hh_l0"
  raw_data: "…"
}
initializer {
  dims: 6
  dims: 6
  data_type: 1
  name: "weight_hh_l1"
  raw_data: "…"
}
initializer {
  dims: 6
  dims: 6
  data_type: 1
  name: "weight_hh_l2"
  raw_data: "…"
}
initializer {
  dims: 6
  dims: 4
  data_type: 1
  name: "weight_ih_l0"
  raw_data: "…"
}
initializer {
  dims: 6
  dims: 6
  data_type: 1
  name: "weight_ih_l1"
  raw_data: "…"
}
initializer {
  dims: 6
  dims: 6
  data_type: 1
  name: "weight_ih_l2"
  raw_data: "…"
}
input {
  name: "input"
  type {
    tensor_type {
      elem_type: 1
      shape {
        dim {
          dim_value: 10
        }
        dim {
          dim_value: 1
        }
        dim {
          dim_value: 4
        }
      }
    }
  }
}
input {
  name: "weight_ih_l0"
  type {
    tensor_type {
      elem_type: 1
      shape {
        dim {
          dim_value: 6
        }
        dim {
          dim_value: 4
        }
      }
    }
  }
}
input {
  name: "weight_hh_l0"
  type {
    tensor_type {
      elem_type: 1
      shape {
        dim {
          dim_value: 6
        }
        dim {
          dim_value: 6
        }
      }
    }
  }
}
input {
  name: "bias_ih_l0"
  type {
    tensor_type {
      elem_type: 1
      shape {
        dim {
          dim_value: 6
        }
      }
    }
  }
}
input {
  name: "bias_hh_l0"
  type {
    tensor_type {
      elem_type: 1
      shape {
        dim {
          dim_value: 6
        }
      }
    }
  }
}
input {
  name: "weight_ih_l1"
  type {
    tensor_type {
      elem_type: 1
      shape {
        dim {
          dim_value: 6
        }
        dim {
          dim_value: 6
        }
      }
    }
  }
}
input {
  name: "weight_hh_l1"
  type {
    tensor_type {
      elem_type: 1
      shape {
        dim {
          dim_value: 6
        }
        dim {
          dim_value: 6
        }
      }
    }
  }
}
input {
  name: "bias_ih_l1"
  type {
    tensor_type {
      elem_type: 1
      shape {
        dim {
          dim_value: 6
        }
      }
    }
  }
}
input {
  name: "bias_hh_l1"
  type {
    tensor_type {
      elem_type: 1
      shape {
        dim {
          dim_value: 6
        }
      }
    }
  }
}
input {
  name: "weight_ih_l2"
  type {
    tensor_type {
      elem_type: 1
      shape {
        dim {
          dim_value: 6
        }
        dim {
          dim_value: 6
        }
      }
    }
  }
}
input {
  name: "weight_hh_l2"
  type {
    tensor_type {
      elem_type: 1
      shape {
        dim {
          dim_value: 6
        }
        dim {
          dim_value: 6
        }
      }
    }
  }
}
input {
  name: "bias_ih_l2"
  type {
    tensor_type {
      elem_type: 1
      shape {
        dim {
          dim_value: 6
        }
      }
    }
  }
}
input {
  name: "bias_hh_l2"
  type {
    tensor_type {
      elem_type: 1
      shape {
        dim {
          dim_value: 6
        }
      }
    }
  }
}
output {
  name: "47"
  type {
    tensor_type {
      elem_type: 1
      shape {
        dim {
          dim_value: 10
        }
        dim {
          dim_value: 1
        }
        dim {
          dim_value: 6
        }
      }
    }
  }
}
output {
  name: "48"
  type {
    tensor_type {
      elem_type: 1
      shape {
        dim {
          dim_value: 3
        }
        dim {
          dim_value: 1
        }
        dim {
          dim_value: 6
        }
      }
    }
  }
}
