ir_version: 4
producer_name: "pytorch"
producer_version: "1.2"
graph {
  node {
    output: "5"
    op_type: "Constant"
    attribute {
      name: "value"
      t {
        dims: 2
        data_type: 7
        raw_data: "\377\377\377\377\377\377\377\377\020\003\000\000\000\000\000\000"
      }
      type: TENSOR
    }
  }
  node {
    input: "0"
    input: "5"
    output: "6"
    op_type: "Reshape"
  }
  node {
    input: "6"
    input: "fc.weight"
    input: "fc.bias"
    output: "7"
    op_type: "Gemm"
    attribute {
      name: "alpha"
      f: 1.0
      type: FLOAT
    }
    attribute {
      name: "beta"
      f: 1.0
      type: FLOAT
    }
    attribute {
      name: "transB"
      i: 1
      type: INT
    }
  }
  node {
    input: "7"
    output: "8"
    op_type: "Relu"
  }
  node {
    input: "8"
    input: "fc2.weight"
    input: "fc2.bias"
    output: "9"
    op_type: "Gemm"
    attribute {
      name: "alpha"
      f: 1.0
      type: FLOAT
    }
    attribute {
      name: "beta"
      f: 1.0
      type: FLOAT
    }
    attribute {
      name: "transB"
      i: 1
      type: INT
    }
  }
  node {
    input: "9"
    output: "10"
    op_type: "LogSoftmax"
    attribute {
      name: "axis"
      i: 1
      type: INT
    }
  }
  name: "torch-jit-export"
  initializer {
    dims: 100
    data_type: 1
    name: "fc.bias"
    raw_data: "…"
  }
  initializer {
    dims: 100
    dims: 784
    data_type: 1
    name: "fc.weight"
    raw_data: "…"
  }
  initializer {
    dims: 10
    data_type: 1
    name: "fc2.bias"
    raw_data: "…"
  }
  initializer {
    dims: 10
    dims: 100
    data_type: 1
    name: "fc2.weight"
    raw_data: "…"
  }
  input {
    name: "0"
    type {
      tensor_type {
        elem_type: 1
        shape {
          dim {
            dim_value: 784
          }
        }
      }
    }
  }
  input {
    name: "fc.weight"
    type {
      tensor_type {
        elem_type: 1
        shape {
          dim {
            dim_value: 100
          }
          dim {
            dim_value: 784
          }
        }
      }
    }
  }
  input {
    name: "fc.bias"
    type {
      tensor_type {
        elem_type: 1
        shape {
          dim {
            dim_value: 100
          }
        }
      }
    }
  }
  input {
    name: "fc2.weight"
    type {
      tensor_type {
        elem_type: 1
        shape {
          dim {
            dim_value: 10
          }
          dim {
            dim_value: 100
          }
        }
      }
    }
  }
  input {
    name: "fc2.bias"
    type {
      tensor_type {
        elem_type: 1
        shape {
          dim {
            dim_value: 10
          }
        }
      }
    }
  }
  output {
    name: "10"
    type {
      tensor_type {
        elem_type: 1
        shape {
          dim {
            dim_value: 1
          }
          dim {
            dim_value: 10
          }
        }
      }
    }
  }
}
opset_import {
  version: 9
}
